…
mmary())\n","\n","model.compile(optimizer='adam', loss='categorical_crossentropy', metrics=['accuracy'])\n"],"execution_count":null,"outputs":[{"output_type":"stream","text":["Base Model Summary:\n","Model: \"vgg19\"\n","_________________________________________________________________\n","Layer (type)                 Output Shape              Param #   \n","=================================================================\n","input_2 (InputLayer)         [(None, 128, 128, 3)]     0         \n","_________________________________________________________________\n","block1_conv1 (Conv2D)        (None, 128, 128, 64)      1792      \n","_________________________________________________________________\n","block1_conv2 (Conv2D)        (None, 128, 128, 64)      36928     \n","_________________________________________________________________\n","block1_pool (MaxPooling2D)   (None, 64, 64, 64)        0         \n","_________________________________________________________________\n","block2_conv1 (Conv2D)        (None, 64, 64, 128)       73856     \n","_________________________________________________________________\n","block2_conv2 (Conv2D)        (None, 64, 64, 128)       147584    \n","_________________________________________________________________\n","block2_pool (MaxPooling2D)   (None, 32, 32, 128)       0         \n","_________________________________________________________________\n","block3_conv1 (Conv2D)        (None, 32, 32, 256)       295168    \n","_________________________________________________________________\n","block3_conv2 (Conv2D)        (None, 32, 32, 256)       590080    \n","_________________________________________________________________\n","block3_conv3 (Conv2D)        (None, 32, 32, 256)       590080    \n","_________________________________________________________________\n","block3_conv4 (Conv2D)        (None, 32, 32, 256)       590080    \n","_________________________________________________________________\n","block3_pool (MaxPooling2D)   (None, 16, 16, 256)       0         \n","_________________________________________________________________\n","block4_conv1 (Conv2D)        (None, 16, 16, 512)       1180160   \n","_________________________________________________________________\n","block4_conv2 (Conv2D)        (None, 16, 16, 512)       2359808   \n","_________________________________________________________________\n","block4_conv3 (Conv2D)        (None, 16, 16, 512)       2359808   \n","_________________________________________________________________\n","block4_conv4 (Conv2D)        (None, 16, 16, 512)       2359808   \n","_________________________________________________________________\n","block4_pool (MaxPooling2D)   (None, 8, 8, 512)         0         \n","_________________________________________________________________\n","block5_conv1 (Conv2D)        (None, 8, 8, 512)         2359808   \n","_________________________________________________________________\n","block5_conv2 (Conv2D)        (None, 8, 8, 512)         2359808   \n","_________________________________________________________________\n","block5_conv3 (Conv2D)        (None, 8, 8, 512)         2359808   \n","_________________________________________________________________\n","block5_conv4 (Conv2D)        (None, 8, 8, 512)         2359808   \n","_________________________________________________________________\n","block5_pool (MaxPooling2D)   (None, 4, 4, 512)         0         \n","=================================================================\n","Total params: 20,024,384\n","Trainable params: 0\n","Non-trainable params: 20,024,384\n","_________________________________________________________________\n","None\n","Model Summary:\n","Model: \"model_1\"\n","_________________________________________________________________\n","Layer (type)                 Output Shape              Param #   \n","=================================================================\n","input_2 (InputLayer)         [(None, 128, 128, 3)]     0         \n","_________________________________________________________________\n","block1_conv1 (Conv2D)        (None, 128, 128, 64)      1792      \n","_________________________________________________________________\n","block1_conv2 (Conv2D)        (None, 128, 128, 64)      36928     \n","_________________________________________________________________\n","block1_pool (MaxPooling2D)   (None, 64, 64, 64)        0         \n","_________________________________________________________________\n","block2_conv1 (Conv2D)        (None, 64, 64, 128)       73856     \n","_________________________________________________________________\n","block2_conv2 (Conv2D)        (None, 64, 64, 128)       147584    \n","_________________________________________________________________\n","block2_pool (MaxPooling2D)   (None, 32, 32, 128)       0         \n","_________________________________________________________________\n","block3_conv1 (Conv2D)        (None, 32, 32, 256)       295168    \n","_________________________________________________________________\n","block3_conv2 (Conv2D)        (None, 32, 32, 256)       590080    \n","_________________________________________________________________\n","block3_conv3 (Conv2D)        (None, 32, 32, 256)       590080    \n","_________________________________________________________________\n","block3_conv4 (Conv2D)        (None, 32, 32, 256)       590080    \n","_________________________________________________________________\n","block3_pool (MaxPooling2D)   (None, 16, 16, 256)       0         \n","_________________________________________________________________\n","block4_conv1 (Conv2D)        (None, 16, 16, 512)       1180160   \n","_________________________________________________________________\n","block4_conv2 (Conv2D)        (None, 16, 16, 512)       2359808   \n","_________________________________________________________________\n","block4_conv3 (Conv2D)        (None, 16, 16, 512)       2359808   \n","_________________________________________________________________\n","block4_conv4 (Conv2D)        (None, 16, 16, 512)       2359808   \n","_________________________________________________________________\n","block4_pool (MaxPooling2D)   (None, 8, 8, 512)         0         \n","_________________________________________________________________\n","block5_conv1 (Conv2D)        (None, 8, 8, 512)         2359808   \n","_________________________________________________________________\n","block5_conv2 (Conv2D)        (None, 8, 8, 512)         2359808   \n","_________________________________________________________________\n","block5_conv3 (Conv2D)        (None, 8, 8, 512)         2359808   \n","_________________________________________________________________\n","block5_conv4 (Conv2D)        (None, 8, 8, 512)         2359808   \n","_________________________________________________________________\n","block5_pool (MaxPooling2D)   (None, 4, 4, 512)         0         \n","_________________________________________________________________\n","global_average_pooling2d_1 ( (None, 512)               0         \n","_________________________________________________________________\n","dense_2 (Dense)              (None, 4096)              2101248   \n","_________________________________________________________________\n","dense_3 (Dense)              (None, 6)                 24582     \n","=================================================================\n","Total params: 22,150,214\n","Trainable params: 2,125,830\n","Non-trainable params: 20,024,384\n","_________________________________________________________________\n","None\n"],"name":"stdout"}]},{"cell_type":"markdown","metadata":{"id":"7J_lOVaW_-z2"},"source":["## Train Model"]},{"cell_type":"code","metadata":{"colab
…
